Actor.pth (torch, 53748 bytes, 6 tensors)

fc1.weight f4 [128, 33]
-0.07037094 -0.5887316 -0.4618381 -0.0969349 -0.5063442 1.0358983 -0.7416582 -0.01608408
0.5682067 0.25239825 -0.044942245 -0.013938602 -0.17171563 -0.32023686 1.3518953 -0.16584794
-0.29027805 0.4375356 -0.11417817 -0.41214442 0.11493638 -0.3163475 -0.2036189 0.3667776
0.42443946 -0.05088281 0.24959949 0.4605615 0.11730432 0.04775063 -0.53745735 0.018319834
-0.15218955 -0.2435186 0.124628104 -0.36183167 -0.8253279 -0.55447173 0.54736024 0.34651056
-0.0756241 -0.6624089 -0.1911066 0.08951659 0.1753049 -0.25025845 0.04003323 -0.26933405
-0.015850514 0.32208312 -0.18484622 -0.15775797 -1.3179922 0.08133022 -0.05170018 0.28379565
-0.024118992 -0.05018729 0.056803405 -0.34510142 0.4477847 0.26625627 -0.057962865 -0.47617266
0.04578137 2.6780016 0.65074277 0.96775794 0.030414088 0.58891547 -0.5903687 -0.90893084
-0.770302 0.1893922 -0.7080946 0.21174559 0.045672007 0.3919174 -0.030892136 -0.14232405
0.13295019 -0.2733085 1.2607358 1.3521113 -1.3043044 -1.4401708 0.15411317 0.11339687
0.14577393 -0.25947115 -0.30424646 -0.3029556 0.17647551 0.5566879 -0.037917413 -0.06963414
-0.62269276 0.068571225 0.5996063 -0.033597004 0.24450518 -0.17788762 0.55189836 -0.3760146
0.24255934 1.0863806 -0.026109438 0.7864254 -0.7645339 -0.0016536096 0.24104248 0.17450367
-0.22657198 0.10307265 0.6017792 0.7532024 -1.6953629 -1.0681369 -1.0273364 -0.040122997
-0.46033803 0.24606653 -0.15386575 0.0032254767 0.36095738 0.27081007 0.08723577 -0.26097527
0.048710946 -0.11562563 0.05314094 0.17064582 0.6078478 -0.42028335 0.48888373 0.628182
-1.2477573 -1.5460744 -0.31438664 -0.012571731 1.236726 -0.37789682 -0.21055357 -0.2622898
-0.020566529 -0.34575704 -0.04338326 -0.5592998 -1.2461561 0.20404547 0.35931173 1.0644177
0.01354834 -0.10282628 0.095307656 0.07617585 0.014875289 0.080256216 0.14495362 0.6714037
0.0332416 0.05246941 -0.69133437 -0.0137277655 1.3683118 0.12442082 0.00593816 0.5398424
0.18660022 0.8742394 -1.2790761 -0.5189051 0.07524745 -0.0495639 0.6301548 -0.071619704
-0.04247989 -0.18422264 -0.43753326 -0.40115127 -0.18779354 0.5882644 -0.87935305 0.8319851
-0.640768 0.20266862 -0.09492392 -0.12913422 0.17095001 -0.032494165 -0.044492923 -0.14364201
1.1833309 -0.46156597 0.056143615 -1.0856891 -0.06975515 0.9046753 -0.035560727 0.49849337
-0.5003956 -0.49824262 1.7411013 -0.4882686 0.748711 -0.07763697 -1.047134 -0.25555244
-0.16022663 -0.14673409 0.43036935 -0.4237835 0.56399024 0.0024629831 -0.62237364 0.7028425
1.850046 -0.3444962 -0.012846771 0.34518895 0.37229702 0.22273813 -0.15280806 0.35841084
0.30853757 0.70228034 -0.0070334426 0.020238632 -0.7019921 -0.024352016 -0.6723795 0.07481847
0.2050758 -0.6397257 -0.67340904 0.94192964 -0.18285689 -0.2945107 0.26726824 0.09832482
-0.037070736 0.36058688 -0.25558332 -0.104330525 0.38159713 0.47088057 0.53272563 0.6332894
-0.6622244 0.2566676 -0.5823899 -0.60579836 -0.33657688 -0.1025077 -0.009588195 0.2647879
00000000: a41e 90bd 1db7 16bf 0b76 ecbe ce85 c6bd
00000010: c69f 01bf 5198 843f 50dd 3dbf c3c2 83bc
00000020: ff75 113f 583a 813e 5c15 38bd bc5e 64bc
00000030: 39d6 2fbe 16f6 a3be e80a ad3f 0bd4 29be
00000040: 539f 94be ab04 e03e 3fd6 e9bd 9804 d3be
00000050: c463 eb3d 4df8 a1be 7981 50be 46ca bb3e
00000060: 2150 d93e 7e6a 50bd 0297 7f3e b8ce eb3e
00000070: 3f3d f03d 2a96 433d ce96 09bf 7a13 963c
00000080: 94d7 1bbe f15c 79be 053d ff3d 0042 b9be
00000090: b048 53bf dcf1 0dbf cd1f 0c3f d569 b13e
000000a0: cfe0 9abd a193 29bf 73b1 43be 7954 b73d
000000b0: 2183 333e e021 80be e2f9 233d 27e6 89be
000000c0: f0d8 81bc 14e8 a43e 5448 3dbe 4e8b 21be
000000d0: f8b3 a8bf 7590 a63d 91c3 53bd aa4d 913e
000000e0: 3195 c5bc 3091 4dbd b0aa 683d 22b1 b0be
000000f0: 0944 e53e be52 883e 786a 6dbd e7cc f3be
00000100: 3f85 3b3d 6164 2b40 1497 263f fcbe 773f
00000110: f726 f93c 2ac3 163f 6722 17bf b1af 68bf
00000120: 8332 45bf 07f0 413e b045 35bf d6d3 583e
00000130: 9212 3b3d 66a9 c83e 8111 fdbc 65bd 11be
00000140: 1824 083e 17ef 8bbe ca5f a13f fc11 ad3f
00000150: 72f3 a6bf 8457 b8bf d8cf 1d3e 9e3c e83d
00000160: c345 153e 67d9 84be 31c6 9bbe ff1c 9bbe
00000170: ffb5 343e 1983 0e3f 4a4f 1bbd 589c 8ebd
00000180: cb68 1fbf 126f 8c3d cc7f 193f 039d 09bd
00000190: 915f 7a3e 2c28 36be 3649 0d3f fc84 c0be
000001a0: 7a61 783e 850e 8b3f 76e3 d5bc 2d53 493f
000001b0: 7eb8 43bf eebd d8ba d7d3 763e 17b1 323e
000001c0: 7c02 68be c117 d33d 340e 1a3f dfd1 403f
000001d0: a701 d9bf b6b8 88bf c27f 83bf 0358 24bd
000001e0: 6db1 ebbe ddf8 7b3e fc8e 1dbe 8562 533b
000001f0: 68cf b83e 9ea7 8a3e aba8 b23d 8d9e 85be
00000200: 2185 473d 21cd ecbd 50aa 593d c7bd 2e3e
00000210: ea9b 1b3f 612f d7be f84e fa3e 89d0 203f
00000220: 83b6 9fbf c4e5 c5bf 49f7 a0be a9f9 4dbc
00000230: 0a4d 9e3f b17b c1be 5b9b 57be d94a 86be
00000240: 237b a8bc 1107 b1be a5b2 31bd 462e 0fbf
00000250: 0b82 9fbf 4cf1 503e b5f7 b73e d73e 883f
00000260: dbf9 5d3c 9696 d2bd a930 c33d 1602 9c3d
00000270: 7cb7 733c 5f5d a43d b96e 143e 1de1 2b3f
00000280: 5828 083d 2aea 563d 4afb 30bf 6cea 60bc
00000290: d724 af3f 58d0 fe3d e594 c23b 1d33 0a3f
000002a0: 2114 3f3e 27ce 5f3f c4b8 a3bf f7d6 04bf
000002b0: 561b 9a3d 8403 4bbd d351 213f 5aad 92bd
000002c0: 65ff 2dbd dca4 3cbe 5c04 e0be b363 cdbe
000002d0: f34c 40be 7f98 163f 481d 61bf fafc 543f
000002e0: 5f09 24bf 5d88 4f3e 7967 c2bd c33b 04be
000002f0: 850d 2f3e 9a18 05bd 363e 36bd e416 13be
00000300: 6377 973f 6052 ecbe d9f6 653d dcf7 8abf
00000310: cadb 8ebd cd98 673f 20a8 11bd 863a ff3e
00000320: ed19 00bf a819 ffbe 68dc de3f 58fe f9be
00000330: 86ab 3f3f 2200 9fbd 7d08 86bf c5d7 82be
00000340: 7312 24be 7641 16be 5f59 dc3e 27fa d8be
00000350: aa61 103f 006a 213b e153 1fbf 7ced 333f
00000360: 4fce ec3f ce61 b0be 437b 52bc 9bbc b03e
00000370: b79d be3e 7715 643e b779 1cbe a081 b73e
00000380: a3f8 9d3e a5c8 333f cb78 e6bb 7dcb a53c
00000390: c1b5 33bf e17d c7bc 1021 2cbf 6d3a 993d
000003a0: 64ff 513e 10c5 23bf 8964 2cbf 4d22 713f
000003b0: d63e 3bbe 1bca 96be 62d7 883e 865e c93d
000003c0: 7cd7 17bd d89e b83e d1db 82be 3eab d5bd
000003d0: b360 c33e 4217 f13e b560 083f 411f 223f
000003e0: 8a87 29bf f069 833e 8117 15bf 9a15 1bbf
000003f0: ce53 acbe 8fef d1bd ce17 1dbc 4892 873e

fc1.bias f4 [128]
-0.6079282 -0.5435618 -0.47554758 -0.04792919 -0.71344024 -1.2662562 -0.63335556 -0.42478383
-0.35305896 -0.7677283 -0.31232134 -0.3598352 -1.011214 -0.15688471 0.21456446 -0.63699144
-0.31015572 -0.31853005 -0.44957772 -0.42275643 0.46283942 -0.85517555 -0.17240427 -0.35480726
-0.22246577 -0.66565096 -0.5446127 -0.4613061 -0.05481855 -0.59449106 -0.69444346 -0.7514359
-0.16176404 0.20280029 -0.30271503 -0.16134785 -0.74339473 -0.46216863 -0.51004094 -0.47425812
-0.62153095 0.32725546 -0.5492719 -0.5133194 -0.3602363 -0.11470973 -0.25921786 -0.07546156
-0.21032363 -0.7389314 -0.36598596 -0.86030215 -0.4746176 -0.09774191 -0.3501883 0.09140689
-0.6745074 -0.20820375 -0.35768542 -0.40670785 -0.37530357 -0.09637839 -0.64513314 -0.3236485
-0.06663735 -0.44783074 -0.6118683 -0.22502714 -0.44652408 -0.31364104 -0.54829586 -0.6329447
-0.65947354 -0.857221 -0.531071 -0.96788657 -0.37134665 0.10805366 -0.16709673 -0.46390823
-0.4611315 -0.25037974 -0.9685173 -0.32073525 -0.44420952 -0.37002975 0.020374294 -0.1410327
-0.740995 -0.1492218 -0.6363013 0.33836657 0.17070091 -0.6468463 0.014546011 -0.75788057
-0.2607928 -0.81916463 0.32156998 -0.46542236 -0.3057547 -0.18524669 -0.024868442 -0.52558124
-0.5429064 -0.32200906 -0.19661385 -0.37074828 -0.6560475 0.43876818 -0.5437533 -0.19434386
-0.2735288 0.05529768 -0.6907231 -0.59165305 0.053520862 -0.42732245 -0.22930925 -0.4216544
-0.46358502 -0.24597757 -0.6223594 -0.60947436 -0.56979847 -0.37278637 -1.0005991 -0.6185634
00000000: 2fa1 1bbf de26 0bbf f97a f3be 6651 44bd
00000010: 05a4 36bf af14 a2bf 9723 22bf 447d d9be
00000020: 25c4 b4be d889 44bf 95e8 9fbe 523c b8be
00000030: 766f 81bf 63a6 20be c9b6 5b3e df11 23bf
00000040: bbcc 9ebe 5f16 a3be 0d2f e6be 8873 d8be
00000050: 4af9 ec3e c9ec 5abf bf8a 30be 4ca9 b5be
00000060: 11ce 63be 1a68 2abf bd6b 0bbf 5030 ecbe
00000070: 6a89 60bd 9130 18bf 0cc7 31bf 1a5e 40bf
00000080: 79a5 25be e1aa 4f3e 77fd 9abe 5f38 25be
00000090: 1e4f 3ebf 5ea1 ecbe 0b92 02bf f6d1 f2be
000000a0: a71c 1fbf 078e a73e 159d 0cbf e668 03bf
000000b0: e470 b8be efec eabd 34b8 84be 978b 9abd
000000c0: 145f 57be 9c2a 3dbf 8362 bbbe c33c 5cbf
000000d0: 1401 f3be e92c c8bd e14b b3be 8933 bb3d
000000e0: 84ac 2cbf 5d33 55be 8b22 b7be 033c d0be
000000f0: ca27 c0be 0962 c5bd 7227 25bf 42b5 a5be
00000100: 2a79 88bd 124a e5be 67a3 1cbf 846d 66be
00000110: ce9e e4be 8f95 a0be 1e5d 0cbf aa08 22bf
00000120: 42d3 28bf d672 5bbf 45f4 07bf 6ac7 77bf
00000130: 2621 bebe 3d4b dd3d 681b 2bbe 6185 edbe
00000140: 6e19 ecbe c631 80be c0f0 77bf 6937 a4be
00000150: 6e6f e3be 8a74 bdbe fee7 a63c e06a 10be
00000160: d9b1 3dbf 99cd 18be a4e4 22bf 623e ad3e
00000170: 38cc 2e3e b897 25bf 6452 6e3c 7604 42bf
00000180: a286 85be c6b4 51bf d2a4 a43e d74b eebe
00000190: e18b 9cbe 4fb1 3dbe e7b8 cbbc 7e8c 06bf
000001a0: eafb 0abf 5fde a4be 2455 49be b8d2 bdbe
000001b0: bbf2 27bf 39a6 e03e 6b33 0bbf 1402 47be
000001c0: f80b 8cbe d27f 623d 3bd3 30bf 9376 17bf
000001d0: b138 5b3d 02ca dabe 0bd0 6abe 16e3 d7be
000001e0: 045b edbe 8be1 7bbe f252 1fbf 8306 1cbf
000001f0: 50de 11bf dbdd bebe a213 80bf 2c5a 1ebf

fc2.weight f4 [64, 128]
0.4082917 0.19339105 -0.3027776 0.19571336 0.7533379 -0.8737382 0.42279392 0.36608833
0.6300878 0.21702412 0.09663697 -0.03542323 -1.3808812 -0.39646646 0.5159711 -1.0190614
0.23077382 -1.0404333 -0.23159418 -0.52811575 -0.57916045 -0.55966526 -0.18678997 0.25533396
0.25412717 0.116119914 -0.35454863 -0.3927831 -0.042611007 0.3885747 -0.35003266 0.67390627
0.3341046 -0.599045 -0.24369285 -0.43284032 -0.16456424 0.31321955 0.062991664 -0.55206454
0.32590172 -1.3725158 -0.27838802 -0.42655802 0.098063946 -0.020719811 -0.39331576 -0.27859762
-0.3671614 -0.36885417 -0.055516146 0.116012104 -0.4461009 -0.92976725 -0.5927285 0.109459236
0.14891875 -0.11642514 -0.08687486 0.6272038 0.13771683 0.31155497 0.7626077 0.5015211
0.31219757 -0.09305763 0.478767 0.62823564 -1.02896 0.68676084 0.08460136 -0.2783865
-0.940096 -0.14205016 0.62498677 0.2884062 0.25199783 0.04949346 0.14209719 -0.40704793
0.14652258 -0.27080145 0.5397429 -0.47256657 -0.09215959 -0.3143762 0.097322606 0.28455842
0.44067466 0.49581847 -0.4192421 -0.255598 0.25017005 -0.056737456 0.29904893 -0.064527676
0.19886148 -0.10126035 -0.71462476 -0.17305887 0.120255426 -0.38605326 -0.019466741 0.49735433
0.4398697 -0.15090565 -0.1815571 0.2639121 -0.029933978 -0.32767332 -0.4474225 -0.57483983
-0.32095915 -0.3961063 0.10886745 0.28463316 -0.19518471 0.13918613 -0.33881816 0.093727864
0.14109942 -0.5604598 0.6054002 -0.45299327 0.083927065 0.8939229 0.31235632 0.39651296
-0.25832132 -0.045617964 0.21217299 0.047712807 -0.28014535 -0.5138438 0.23092431 0.2038752
-0.30586517 -0.05038789 -0.24007297 -0.042840045 -0.11417474 -0.10173862 -0.8230093 -0.2402111
0.19545099 0.2063335 -0.06650133 0.17394373 0.6719976 -0.093282826 -0.36208194 -0.071591884
0.114524886 -0.07814084 0.03121155 0.21284585 -0.4326964 0.4245733 -0.56592274 0.098464064
-0.62428033 0.0019970932 -0.26902577 0.519036 0.5283241 -0.24676187 0.33614093 -0.54511267
-0.2958918 0.22751318 -0.028294751 -0.26903516 0.37907955 -0.12878032 0.3261231 -0.11357454
-0.047617484 -0.27149713 -0.0251148 -0.15156041 0.18010575 -0.58571535 -0.1496063 -0.16696389
0.10393981 0.24779597 0.6789961 -0.21601112 0.16543838 -0.12615265 -0.26972476 -0.037066493
-0.15464154 -1.4051639 -0.6481616 0.73432934 -0.25362667 -0.2759183 0.7177508 -0.11521042
0.38514748 -0.49926537 0.6402346 0.22004505 -0.49226508 -1.051107 -0.3659489 -0.14906271
0.5015001 0.18335901 0.16793548 0.5457278 -0.017486196 0.083694555 0.24101426 -0.23243822
0.2737579 -0.01669342 -0.16184002 -0.19953726 0.11295309 0.32483363 -0.75010026 -0.4700639
-0.033150483 1.0763932 -0.31876725 0.29968685 0.5304521 -0.14412853 0.17162648 -0.32193905
0.38068765 0.58246446 0.24128968 0.47989786 0.44914952 -0.6337313 0.080835134 0.121312894
-0.4154598 0.59060556 -0.4164879 -0.5255056 -0.12772614 0.37854227 0.9513098 -0.6935999
-0.11287587 0.24787138 -0.37930182 -0.3787564 -0.48591205 0.22901917 0.16511291 0.19808646
00000000: 9c0b d13e 4e08 463e aa05 9bbe 1569 483e
00000010: c1da 403f 4fad 5fbf 7278 d83e ee6f bb3e
00000020: 6f4d 213f 923b 5e3e 9be9 c53d f317 11bd
00000030: b7c0 b0bf a7fd cabe af16 043f 9b70 82bf
00000040: f94f 6c3e eb2c 85bf 0627 6dbe 9832 07bf
00000050: dc43 14bf 3946 0fbf df45 3fbe 22bb 823e
00000060: f51c 823e 47d0 ed3d 6687 b5be de1a c9be
00000070: e188 2ebd 43f3 c63e 7b37 b3be 1f85 2c3f
00000080: c20f ab3e 035b 19bf 9e8a 79be 3f9d ddbe
00000090: 8783 28be 505e a03e c601 813d 1a54 0dbf
000000a0: 97dc a63e 99ae afbf e088 8ebe d065 dabe
000000b0: c0d5 c83d 98bc a9bc af60 c9be 59a4 8ebe
000000c0: 94fc bbbe 74da bcbe e664 63bd c197 ed3d
000000d0: 5667 e4be 3a05 6ebf 0ebd 17bf 2a2c e03d
000000e0: 287e 183e 4e70 eebd 72eb b1bd 6e90 203f
000000f0: a405 0d3e 2284 9f3e 423a 433f b063 003f
00000100: 5cd8 9f3e 0095 bebd f320 f53e 0dd4 203f
00000110: f6b4 83bf 8fcf 2f3f 7a43 ad3d ad88 8ebe
00000120: 22aa 70bf 9975 11be 22ff 1f3f faa9 933e
00000130: dc05 813e a8b9 4a3d ed81 113e 9668 d0be
00000140: 040a 163e 7da6 8abe 972c 0a3f 3ff4 f1be
00000150: 2bbe bcbd ebf5 a0be 1351 c73d a4b1 913e
00000160: 1ca0 e13e ebdb fd3e e7a6 d6be bedd 82be
00000170: 4a16 803e 8965 68bd f11c 993e 1627 84bd
00000180: 58a2 4b3e 9661 cfbd a6f1 36bf 5836 31be
00000190: 7a48 f63d c6a8 c5be b778 9fbc 3aa5 fe3e
000001a0: 9a36 e13e 0387 1abe 1bea 39be 7d1f 873e
000001b0: 1a38 f5bc ccc4 a7be 9014 e5be b428 13bf
000001c0: c254 a4be 72ce cabe e6f5 de3d 70bb 913e
000001d0: 80de 47be cf86 0e3e 9379 adbe 65f4 bf3d
000001e0: 5e7c 103e 4b7a 0fbf 82fb 1a3f bcee e7be
000001f0: f4e1 ab3d 22d8 643f 2bed 9f3e bf03 cb3e
00000200: b142 84be e7d9 3abd e043 593e 816e 433d
00000210: 366f 8fbe 448b 03bf 6c77 6c3e a9c4 503e
00000220: 5c9a 9cbe 8863 4ebd b0d5 75be 0b79 2fbd
00000230: 72d4 e9bd 565c d0bd bdb0 52bf e6f9 75be
00000240: 4e24 483e 1749 533e d931 88bd 4e1e 323e
00000250: 0908 2c3f 110b bfbd ce62 b9be c49e 92bd
00000260: 068c ea3d 4e08 a0bd 5daf ff3c 43f4 593e
00000270: 628a ddbe ac61 d93e 50e0 10bf 87a7 c93d
00000280: d6d0 1fbf aae1 023b bfbd 89be 8bdf 043f
00000290: 4040 073f 25af 7cbe aa1a ac3e 818c 0bbf
000002a0: 217f 97be 37f9 683e 65ca e7bc fabe 89be
000002b0: b716 c23e fdde 03be 9bf9 a63e c599 e8bd
000002c0: 8d0a 43bd ac01 8bbe 8ebd cdbc a732 1bbe
000002d0: a46d 383e 71f1 15bf 6532 19be 95f8 2abe
000002e0: 65de d43d 3abe 7d3e b0d2 2d3f 0532 5dbe
000002f0: ae68 293e 292e 01be 5d19 8abe 09d3 17bd
00000300: 5a5a 1ebe 69dc b3bf ebed 25bf 02fd 3b3f
00000310: 5bdb 81be 2a45 8dbe 84be 373f 71f3 ebbd
00000320: 0d32 c53e b69f ffbe 6ae6 233f 7d53 613e
00000330: 2b0a fcbe ad8a 86bf a75d bbbe e5a3 18be
00000340: 5062 003f 77c2 3b3e 47f7 2b3e d1b4 0b3f
00000350: 363f 8fbc 0d68 ab3d 71cc 763e 4904 6ebe
00000360: ff29 8c3e a4c0 88bc 64b9 25be 7f53 4cbe
00000370: f353 e73d 9850 a63e 9206 40bf 37ac f0be
00000380: cdc8 07bd 41c7 893f 7635 a3be 8e70 993e
00000390: b5cb 073f 6e96 13be dabe 2f3e 32d5 a4be
000003a0: 7ee9 c23e 641c 153f a414 773e 2cb5 f53e
000003b0: edf6 e53e 373c 22bf e48c a53d e572 f83d
000003c0: 26b7 d4be ed31 173f e73d d5be 8987 06bf
000003d0: a4ca 02be 4bd0 c13e 0a89 733f c38f 31bf
000003e0: 772b e7bd ffd1 7d3e d933 c2be 5cec c1be
000003f0: 77c9 f8be 0084 6a3e 5c13 293e 2dd7 4a3e

fc2.bias f4 [64]
-0.40212268 0.091298215 -0.22440848 -0.19945721 -0.03647251 0.31775296 -0.5592589 -0.22673665
-0.7377524 -0.16745739 -0.116469376 -0.39218456 -0.07230676 -0.15888341 0.2751792 -0.0992171
-0.47245938 0.11365729 -0.46570256 -0.42720652 -0.34473318 0.24603856 -0.44677684 0.11772015
0.25381586 -0.07743108 0.13384351 -0.041686587 -0.21056148 -0.5008119 -0.21577077 -0.13004343
-0.4553508 -0.022070616 -0.0498067 -0.08537014 0.3321884 -0.3447237 0.044733796 -0.43766594
-0.31761163 -0.36797914 -0.37031615 -0.079409845 -0.35881793 -0.091089815 -0.12042645 0.095360346
0.062664285 -0.26428074 0.025730798 -0.42256173 -0.26673922 0.07340382 -0.35715544 -0.22238141
-0.20365223 -0.55354524 -0.18904936 -0.2658962 -0.35706475 0.25879973 -0.7899376 0.088646576
00000000: 06e3 cdbe 8ffa ba3d 56cb 65be 833e 4cbe
00000010: 3364 15bd 84b0 a23e 972b 0fbf a72d 68be
00000020: 57dd 3cbf f379 2bbe 7f87 eebd 6acc c8be
00000030: 9115 94bd 55b2 22be 4ae4 8c3e 5632 cbbd
00000040: 32e6 f1be 27c5 e83d 9170 eebe d0ba dabe
00000050: de80 b0be 88f1 7b3e efbf e4be 4317 f13d
00000060: 27f4 813e 3094 9ebd 460e 093e 8ebf 2abd
00000070: 6e9d 57be 3535 00bf 03f3 5cbe 1b2a 05be
00000080: bd23 e9be 70cd b4bc 1c02 4cbd 8ad6 aebd
00000090: 9914 aa3e a07f b0be c93a 373d c015 e0be
000000a0: fe9d a2be c367 bcbe 149a bdbe a1a1 a2bd
000000b0: fcb6 b7be 4c8d babd 25a2 f6bd 494c c33d
000000c0: 2256 803d ce4f 87be 65c9 d23c 035a d8be
000000d0: 0b92 88be be54 963d 14dd b6be f4b7 63be
000000e0: 368a 50be 24b5 0dbf 2896 41be 8c23 88be
000000f0: 31d1 b6be 6681 843e 5a39 4abf 568c b53d

fc3.weight f4 [4, 64]
-0.45655876 0.056972045 0.2756107 0.0008681299 0.07212888 -0.17875819 -0.21766339 0.28711444
-0.05782261 -0.05089112 0.18475755 0.3113004 -0.22053449 -0.13117243 -0.3523312 -0.26325178
-0.35814902 0.09754293 -0.038563233 -0.010308251 -0.07067198 -0.18090205 -0.22885989 0.028410215
-0.07019308 0.33274642 0.15628125 -0.15050423 -0.36265922 -0.40937436 0.24292177 0.08252171
0.20333494 -0.0004458435 -0.18224457 -0.1039879 -0.09518856 -0.16100223 0.03292527 -1.1534382
0.41544154 -0.14900562 -0.15304434 -0.23763275 -0.30846474 -0.60738593 -0.34231332 -0.22774181
-0.3109709 0.09356107 -0.063637294 0.26796088 0.15860431 -0.022470983 -0.6868775 0.04959487
-0.24139427 0.31590816 -0.19816998 -0.49636677 0.04897666 0.36493364 0.35203153 -0.99383974
0.20790266 -0.17750332 -0.20203245 0.40627876 0.50198203 -0.050529648 1.0771432 -1.0702418
0.4187215 0.6027909 -0.23786382 -0.19782002 -0.40312827 0.6053239 0.41742963 -1.3430371
-0.39265656 0.68405956 -0.1492588 -0.71693665 1.1621906 -0.32268265 -0.6494206 0.11785446
-0.16976874 -0.23236002 -0.43184364 0.037316922 0.6263949 -0.19670908 -0.46916083 0.53337127
0.77322423 -1.215313 -0.727911 -1.0257584 0.6309799 0.26706955 0.58583754 -0.21889427
0.47874203 0.072766215 -0.29905865 -0.18798983 -0.13782093 0.12253647 -0.45803607 -1.1102324
-0.021890778 -0.33796453 0.46108553 0.027951604 0.42046523 -0.5728378 0.4792348 -0.70969635
-0.48973626 0.97539914 -0.4383875 -0.22684857 0.76771617 -0.2878044 -0.39903545 0.6546263
-0.48061788 0.16242357 -0.082469374 -0.07320042 -0.0677491 0.07355025 -0.137572 0.0016528402
0.11298154 0.1331938 0.11712492 0.28839275 0.16382755 -0.068534985 -0.020623649 -0.22143798
0.08543138 -0.098312676 0.041700974 0.29912794 -0.22199431 0.12663938 0.017170575 -0.024201902
0.09597275 0.059823036 0.16036491 0.1940537 -0.06625753 -0.059732035 0.065629035 -0.03840073
-0.16870292 0.009106382 -0.011444872 -0.102952585 -0.016733982 -0.07585518 0.08454087 0.40285861
0.118411005 -0.4474099 -0.2116357 0.21879213 -0.122801624 0.5547976 -0.18764831 0.008310065
-0.12083446 -0.24140891 0.46664077 0.2707951 0.09334372 -0.020680266 -0.12291114 -0.021948569
-0.35124755 0.24162495 0.41444695 0.19694474 -0.019713005 0.056411784 0.027118292 -0.15528026
-0.08278491 -0.096844934 0.07703331 0.2369205 0.13840126 0.12206515 0.24645004 0.09567746
-0.5984502 -0.26190555 0.04166456 0.4765554 -0.22444513 0.14161319 0.13276342 0.048455335
0.20365736 -0.11281646 -0.2782406 -0.46185666 0.118745886 -0.028922675 -0.1585154 -0.26948056
-0.1877967 -0.16999279 -0.19664483 -0.2050367 -0.024222579 -0.46438852 0.043753978 -0.17734417
0.0326129 -0.11058641 -0.11937282 -0.1433577 -0.18385406 0.19036987 -0.06971895 -0.15099481
0.044263046 0.2690634 0.24649067 -0.11750004 -0.28604662 -0.09573201 0.06214129 -0.030823683
0.05038503 0.09816648 -0.36271602 0.13863325 0.031304877 0.19043674 0.13439055 0.11201233
-0.23380932 0.040424734 -0.17670202 -0.30026263 -0.1761618 0.060732294 -0.06556401 -0.0020028318
00000000: 12c2 e9be 855b 693d d81c 8d3e 3693 633a
00000010: 4eb8 933d 630c 37be 27e3 5ebe aa00 933e
00000020: 67d7 6cbd 3573 50bd 1531 3d3e c462 9f3e
00000030: cbd3 61be 1152 06be c164 b4be f0c8 86be
00000040: 4f5f b7be 96c4 c73d 7bf4 1dbd f0e3 28bc
00000050: 79bc 90bd 633e 39be 3f5a 6abe 8abc e83c
00000060: 64c1 8fbd bd5d aa3e 3108 203e c81d 1abe
00000070: 78ae b9be 8499 d1be 7cc0 783e 2401 a93d
00000080: 0937 503e 1ac0 e9b9 529e 3abe 9cf7 d4bd
00000090: 38f2 c2bd c5dd 24be a6dc 063d dda3 93bf
000000a0: c1b4 d43e ee94 18be a8b7 1cbe 0056 73be
000000b0: 17ef 9dbe a57d 1bbf b143 afbe 2635 69be
000000c0: 9437 9fbe f29c bf3d 4554 82bd 2b32 893e
000000d0: 2b69 223e 1115 b8bc 34d7 2fbf fe23 4b3d
000000e0: 0f30 77be b7be a13e 12ed 4abe c923 febe
000000f0: c09b 483d 95d8 ba3e 7a3d b43e 486c 7ebf
00000100: 6fe4 543e 6ec3 35be 98e1 4ebe c503 d03e
00000110: e581 003f 2df8 4ebd d4df 893f affd 88bf
00000120: aa62 d63e 8150 1a3f 9392 73be 5591 4abe
00000130: d466 cebe 82f6 1a3f 56b9 d53e a4e8 abbf
00000140: 480a c9be 871e 2f3f 4dd7 18be 2989 37bf
00000150: a9c2 943f a936 a5be 6e40 26bf ae5d f13d
00000160: dbd7 2dbe c9ef 6dbe 9c1a ddbe a1d9 183d
00000170: 6b5b 203f 1b6e 49be d935 f0be 058b 083f
00000180: 06f2 453f 608f 9bbf 6058 3abf 0d4c 83bf
00000190: e687 213f 57bd 883e 73f9 153f d225 60be
000001a0: ad1d f53e 7406 953d 371e 99be 6880 40be
000001b0: ee20 0dbe 67f4 fa3d b483 eabe 181c 8ebf
000001c0: 4a54 b3bc b009 adbe 6713 ec3e c3fa e43c
000001d0: 3847 d73e 80a5 12bf 445e f53e a9ae 35bf
000001e0: b6be fabe c2b3 793f 5474 e0be fe4a 68be
000001f0: 0c89 443f 195b 93be 604e ccbe 9795 273f
00000200: 8c13 f6be 5d52 263e b4e5 a8bd 1aea 95bd
00000210: 0ac0 8abd 83a1 963d addf 0cbe 1da4 d83a
00000220: de62 e73d f563 083e 31df ef3d 37a8 933e
00000230: 69c2 273e 125c 8cbd edf2 a8bc a3c0 62be
00000240: a6f6 ae3d 2858 c9bd a4ce 2a3d 4c27 993e
00000250: 7a52 63be c1ad 013e 4ea9 8c3c 1143 c6bc
00000260: 5c8d c43d 0009 753d b336 243e 03b6 463e
00000270: 07b2 87bd 94a9 74bd 8468 863d 154a 1dbd
00000280: 75c0 2cbe ef32 153c 4683 3bbc ced8 d2bd
00000290: b415 89bc f659 9bbd c323 ad3d 7c43 ce3e
000002a0: 7881 f23d e912 e5be 07b7 58be 0b0b 603e
000002b0: 6b7f fbbd 3707 0e3f e126 40be f026 083c
000002c0: 0f78 f7bd e633 77be 8aeb ee3e a8a5 8a3e
000002d0: fe2a bf3d a969 a9bc d6b8 fbbd 7ccd b3bc
000002e0: b8d6 b3be 886c 773e 6432 d43e e2ab 493e
000002f0: 2b7d a1bc 0b10 673d 2e27 de3c ca01 1fbe
00000300: 238b a9bd a356 c6bd a4c3 9d3d 4a9b 723e
00000310: 0fb9 0d3e 4bfd f93d 665d 7c3e 8bf2 c33d
00000320: 0834 19bf 7c18 86be 75a8 2a3d 12ff f33e
00000330: f2d4 65be 0c03 113e 22f3 073e 1a79 463d
00000340: 8e8b 503e 510c e7bd 8d75 8ebe 7a78 ecbe
00000350: 0b31 f33d 3fef ecbc dc51 22be 5bf9 89be
00000360: c74d 40be 9712 2ebe 435d 49be 24f5 51be
00000370: 6e6e c6bc 55c4 edbe 5f37 333d b699 35be
00000380: 1b95 053d 217b e2bd bd79 f4bd 5ccc 12be
00000390: 3d44 3cbe 52f0 423e cfc8 8ebd 629e 1abe
000003a0: 2b4d 353d aec2 893e 0d68 7c3e dca3 f0bd
000003b0: b474 92be 250f c4bd de87 7e3d f381 fcbc
000003c0: 8960 4e3d 820b c93d eab5 b9be e0f5 0d3e
000003d0: 8b39 003d d901 433e ad9d 093e b866 e53d
000003e0: b66b 6fbe 6894 253d 60f1 34be 06bc 99be
000003f0: c263 34be 6dc2 783d 6c46 86bd f141 03bb

fc3.bias f4 [4]
0.25680053 0.02389008 0.20070633 -0.05793996
00000000: 5c7b 833e 21b5 c33c f685 4d3e 7452 6dbd
